(13292, 40, 40, 40)
(13292,)
RetNet(
  (conv1): Sequential(
    (0): Conv3d(1, 12, kernel_size=(3, 3, 3), stride=(1, 1, 1), padding=(1, 1, 1), bias=False, padding_mode=circular)
    (1): BatchNorm3d(12, eps=1e-05, momentum=0.1, affine=True, track_running_stats=True)
    (2): LeakyReLU(negative_slope=0.01)
  )
  (conv2): Sequential(
    (0): Conv3d(12, 24, kernel_size=(3, 3, 3), stride=(1, 1, 1), padding=(1, 1, 1), bias=False, padding_mode=circular)
    (1): BatchNorm3d(24, eps=1e-05, momentum=0.1, affine=True, track_running_stats=True)
    (2): LeakyReLU(negative_slope=0.01)
  )
  (adjust_channels): Conv3d(12, 24, kernel_size=(1, 1, 1), stride=(1, 1, 1), bias=False, padding_mode=circular)
  (max1): MaxPool3d(kernel_size=2, stride=2, padding=0, dilation=1, ceil_mode=False)
  (conv3): Sequential(
    (0): Conv3d(24, 32, kernel_size=(3, 3, 3), stride=(1, 1, 1), padding=(1, 1, 1), bias=False, padding_mode=circular)
    (1): BatchNorm3d(32, eps=1e-05, momentum=0.1, affine=True, track_running_stats=True)
    (2): LeakyReLU(negative_slope=0.01)
  )
  (max2): MaxPool3d(kernel_size=2, stride=2, padding=0, dilation=1, ceil_mode=False)
  (conv4): Sequential(
    (0): Conv3d(32, 64, kernel_size=(3, 3, 3), stride=(1, 1, 1), padding=(1, 1, 1), bias=False, padding_mode=circular)
    (1): BatchNorm3d(64, eps=1e-05, momentum=0.1, affine=True, track_running_stats=True)
    (2): LeakyReLU(negative_slope=0.01)
  )
  (conv5): Sequential(
    (0): Conv3d(64, 120, kernel_size=(3, 3, 3), stride=(1, 1, 1), padding=(1, 1, 1), bias=False, padding_mode=circular)
    (1): BatchNorm3d(120, eps=1e-05, momentum=0.1, affine=True, track_running_stats=True)
    (2): LeakyReLU(negative_slope=0.01)
  )
  (fc1): Sequential(
    (0): Flatten(start_dim=1, end_dim=-1)
    (1): Dropout(p=0.3, inplace=False)
    (2): Linear(in_features=1, out_features=1176, bias=True)
    (3): BatchNorm1d(1176, eps=1e-05, momentum=0.1, affine=True, track_running_stats=True)
    (4): LeakyReLU(negative_slope=0.01)
  )
  (fc2): Sequential(
    (0): Linear(in_features=1176, out_features=84, bias=True)
    (1): BatchNorm1d(84, eps=1e-05, momentum=0.1, affine=True, track_running_stats=True)
    (2): LeakyReLU(negative_slope=0.01)
    (3): Linear(in_features=84, out_features=20, bias=True)
    (4): BatchNorm1d(20, eps=1e-05, momentum=0.1, affine=True, track_running_stats=True)
    (5): LeakyReLU(negative_slope=0.01)
    (6): Linear(in_features=20, out_features=1, bias=True)
  )
)

Epoch: 0
Iteration 15         ->    train_metric = -0.064         val_metric = 0.048
Iteration 30         ->    train_metric = 0.038          val_metric = 0.082
Iteration 45         ->    train_metric = 0.046          val_metric = 0.076
Iteration 60         ->    train_metric = 0.130          val_metric = 0.131
Iteration 75         ->    train_metric = 0.094          val_metric = 0.090
…
